webots/controllers/torch_controller/models/model_py.pt (torch_old, 5071 bytes, 5 tensors)

weight f4 [10, 2]
0	0xbe918e27	-0.28428766
1	0xbd2b8e10	-0.04188353
2	0xbeb0fcb0	-0.34567785
3	0xbf793e0e	-0.9736031
4	0xbe057bec	-0.13035554
5	0x3eb76c42	0.35824782
6	0xbda29c50	-0.079399705
7	0x3e083934	0.13303071
8	0xbf8e643f	-1.1124343
9	0xbf09e017	-0.5385756
10	0x3dfe628c	0.1242114
11	0xbda2dd52	-0.0795237
12	0x3f6aef55	0.9177144
13	0xbeaa2498	-0.33231044
14	0xbee5d5af	-0.4488959
15	0x3f2f5e58	0.6850333
16	0xbee64b39	-0.44979265
17	0x3e65a887	0.2242757
18	0x3f7c1f28	0.9848504
19	0x3f29119e	0.66042507

bias f4 [10]
0	0xbec66534	-0.38749087
1	0xbdbda351	-0.09259666
2	0xbf078e53	-0.52951545
3	0xbf12a308	-0.57280016
4	0xbe879c3f	-0.26486394
5	0x3e429736	0.19002995
6	0x3f2bb868	0.67078257
7	0x3ef25f5f	0.47338387
8	0x3edd8d05	0.43271652
9	0xbde7dff9	-0.11322016

weight f4 [5, 10]
0	0xbe93277d	-0.28741065
1	0x3e6ff363	0.23432688
2	0xbcc15ea0	-0.023604691
3	0xbd498eb8	-0.049208373
4	0xbe86b2bc	-0.26308239
5	0x3e9869e3	0.29768285
6	0x3dee712b	0.11642679
7	0xbe2d413a	-0.16919413
8	0xbe53b95c	-0.20676178
9	0x3e5ffd1a	0.21873894
10	0xbe9d8ed1	-0.30773023
11	0x3f0fbe8f	0.56150144
12	0xbe9bf3c8	-0.30459428
13	0x3d346968	0.044045836
14	0x3f21210d	0.62941056
15	0xbe932d1a	-0.28745347
16	0xbf4562a5	-0.77103645
17	0x3f559d5f	0.83443254
18	0x3e94d038	0.29065108
19	0x3e2cf4dd	0.16890283
20	0xbe58efe4	-0.21185261
21	0x3f4d2baf	0.8014478
22	0xbdd9627a	-0.10614486
23	0x3e720fae	0.23638794
24	0x3f326f1c	0.6970079
25	0xbda111c7	-0.07864719
26	0x3f0d9106	0.55299413
27	0xbe50fcb3	-0.20408897
28	0xbf0c61d8	-0.548368
29	0x3f84ee1b	1.0385164
30	0xbdecee5c	-0.11568901
31	0x3db989d4	0.09059492
32	0x3d151670	0.03639835
33	0x3d2cca60	0.042185187
34	0x3df86d5c	0.12130234
35	0x3e256c98	0.16154706
36	0x3c9122af	0.017716734
37	0x3df28c0b	0.11843117
38	0x3e58ac05	0.2115937
39	0x3e8a1f09	0.26976803
40	0xbe48d5c3	-0.19612794
41	0xbda1a3b9	-0.07892556
42	0x3def0a80	0.116719246
43	0x3de91648	0.11381203
44	0xbc85e316	-0.016343635
45	0xbe699e6a	-0.22814336
46	0xbe0abfaf	-0.13549684
47	0xbe839b78	-0.2570455
48	0xbe828f96	-0.25500172
49	0x3e3f571a	0.1868557

bias f4 [5]
0	0xbe85c01c	-0.2612313
1	0xbdadf1ed	-0.08493409
2	0xbdc8fd5b	-0.09813949
3	0xbed6af41	-0.41930583
4	0x3dda3fe8	0.106567204

weight f4 [1, 5]
0	0xba151aed	-0.0005687911
1	0x3fad6854	1.3547463
2	0x3fcae19d	1.5850102
3	0xbded422c	-0.11584887
4	0xbe80662b	-0.25077948
